…
    (0): Flatten(start_dim=1, end_dim=-1)
    (1): Linear(in_features=256, out_features=32768, bias=True)
    (2): SiLU()
    (3): Unflatten(dim=1, unflattened_size=torch.Size([32, 32, 32]))
  )
  (quantize): VectorQuantizer2(
    (embedding): Embedding(64, 16)
  )
  (conv_out): Conv2d(256, 256, kernel_size=(1, 1), stride=(1, 1))
)
==========================================================================================
Layer (type:depth-idx)                   Output Shape              Param #
==========================================================================================
PhyloDisentangler                        [1, 256, 32, 32]          --
├─Conv2d: 1-1                            [1, 256, 32, 32]          65,792
├─Sequential: 1-2                        [1, 16, 4, 4]             --
│    └─LayerNorm: 2-1                    [1, 32, 32, 32]           65,536
│    └─Flatten: 2-2                      [1, 32768]                --
│    └─Linear: 2-3                       [1, 256]                  8,388,864
│    └─SiLU: 2-4                         [1, 256]                  --
│    └─Unflatten: 2-5                    [1, 16, 4, 4]             --
├─VectorQuantizer2: 1-3                  [1, 16, 4, 4]             --
│    └─Embedding: 2-6                    [16, 16]                  1,024
├─Sequential: 1-4                        [1, 32, 32, 32]           --
│    └─Flatten: 2-7                      [1, 256]                  --
│    └─Linear: 2-8                       [1, 32768]                8,421,376
│    └─SiLU: 2-9                         [1, 32768]                --
│    └─Unflatten: 2-10                   [1, 32, 32, 32]           --
├─Conv2d: 1-5                            [1, 256, 32, 32]          65,792
==========================================================================================
Total params: 17,008,384
Trainable params: 17,008,384
Non-trainable params: 0
Total mult-adds (M): 151.63
==========================================================================================
Input size (MB): 1.05
Forward/backward pass size (MB): 4.72
Params size (MB): 68.03
Estimated Total Size (MB): 73.80
…
│    │    └─Module: 3-5                            --                        (8,394,752)
│    └─Module: 2-3                                 --                        --
│    │    └─ResnetBlock: 3-6                       [1, 512, 32, 32]          (4,721,664)
│    │    └─AttnBlock: 3-7                         [1, 512, 32, 32]          (1,051,648)
│    │    └─ResnetBlock: 3-8                       [1, 512, 32, 32]          (4,721,664)
│    └─GroupNorm: 2-4                              [1, 512, 32, 32]          (1,024)
│    └─Conv2d: 2-5                                 [1, 256, 32, 32]          (1,179,904)
├─PhyloDisentangler: 1-2                           [1, 256, 32, 32]          --
│    └─Conv2d: 2-6                                 [1, 256, 32, 32]          65,792
│    └─Sequential: 2-7                             [1, 16, 4, 4]             --
│    │    └─LayerNorm: 3-9                         [1, 32, 32, 32]           65,536
│    │    └─Flatten: 3-10                          [1, 32768]                --
│    │    └─Linear: 3-11                           [1, 256]                  8,388,864
│    │    └─SiLU: 3-12                             [1, 256]                  --
│    │    └─Unflatten: 3-13                        [1, 16, 4, 4]             --
│    └─VectorQuantizer2: 2-8                       [1, 16, 4, 4]             --
│    │    └─Embedding: 3-14                        [16, 16]                  1,024
│    └─Sequential: 2-9                             [1, 32, 32, 32]           --
│    │    └─Flatten: 3-15                          [1, 256]                  --
│    │    └─Linear: 3-16                           [1, 32768]                8,421,376
│    │    └─SiLU: 3-17                             [1, 32768]                --
│    │    └─Unflatten: 3-18                        [1, 32, 32, 32]           --
│    └─Conv2d: 2-10                                [1, 256, 32, 32]          65,792
├─Conv2d: 1-3                                      [1, 256, 32, 32]          (65,792)
├─VectorQuantizer2: 1-4                            [1, 256, 32, 32]          --
│    └─Embedding: 2-11                             [1024, 256]               (262,144)
├─Conv2d: 1-5                                      [1, 256, 32, 32]          (65,792)
├─Decoder: 1-6                                     [1, 3, 512, 512]          --
│    └─Conv2d: 2-12                                [1, 512, 32, 32]          (1,180,160)
│    └─Module: 2-13                                --                        --
│    │    └─ResnetBlock: 3-19                      [1, 512, 32, 32]          (4,721,664)
│    │    └─AttnBlock: 3-20                        [1, 512, 32, 32]          (1,051,648)
│    │    └─ResnetBlock: 3-21                      [1, 512, 32, 32]          (4,721,664)
…
